03 CV/models/03_pytorch_computer_vision_model_2.pth (torch, 35147 bytes, 10 tensors)

block_1.0.weight f4 [10, 1, 3, 3]
0.30153677 0.33006474 -0.37343585 0.19752531 0.17801343 0.12322891 -0.35393405 0.087838955
0.2086978 -0.43675876 0.41920176 -0.09575233 0.064524755 0.4291264 0.18273576 -0.16232003
0.42253482 0.045863587 -0.322405 -0.102282286 -0.05083758 -0.7533164 -0.7206875 0.22771952
-0.8494524 -0.70754683 -0.07109792 -0.63799536 -0.8007782 -0.3397617 0.3812941 -0.4492714
0.396055 0.35863057 0.037212446 0.5246275 0.0058724843 0.3295566 -0.15623766 -0.12927279
0.2786114 -0.13603382 0.03355444 0.39550802 0.10158978 -0.14841472 0.18602236 0.05722976
0.16860117 -0.20429018 -0.330776 -0.12708414 -0.25560644 0.26209345 0.100485116 0.15721224
-0.11661817 0.07837719 0.2190018 -0.28043237 -0.037249804 -0.49953052 -0.06381454 -0.12322104
0.025117643 -0.14280823 0.30763608 -0.23458993 -0.22046728 -0.15181339 0.38305366 0.19848996
0.46310326 -0.32500857 -0.44886893 -0.17929797 -0.21682097 0.124038525 0.2898593 0.39183146
-0.14681755 -0.22710924 0.17538969 -0.13512321 0.20113127 -0.08107777 0.18898907 -0.2591132
-0.16830032 0.1001842
00000000: 0763 9a3e 3ffe a83e fc32 bfbe 1344 4a3e
00000010: 2749 363e 705f fc3d d836 b5be e9e4 b33d
00000020: e0b4 553e d89e dfbe 9da1 d63e cc19 c4bd
00000030: 8e25 843d 75b6 db3e 151f 3b3e 3937 26be
00000040: 7c56 d83e 75db 3b3d 4512 a5be 6079 d1bd
00000050: 113b 50bd 58d9 40bf fa7e 38bf 4e2f 693e
00000060: b675 59bf ca21 35bf c99b 91bd aa53 23bf
00000070: cdff 4cbf 3ff5 adbe fb38 c33e e706 e6be
00000080: b9c7 ca3e 6d9e b73e 146c 183d fd4d 063f
00000090: f86d c03b a5bb a83e c4fc 1fbe 1660 04be
000000a0: 27a6 8e3e 734c 0bbe 6170 093d 0780 ca3e
000000b0: 4d0e d03d 07fa 17be a57c 3e3e c169 6a3d
000000c0: c9a5 2c3e 7231 51be 795b a9be 5822 02be
000000d0: d9de 82be 1d31 863e 24cb cd3d 3ffc 203e
000000e0: 82d5 eebd 3884 a03d 0242 603e d594 8fbe
000000f0: 4093 18bd 77c2 ffbe 33b1 82bd 505b fcbd
00000100: 84c3 cd3c 523c 12be 7a82 9d3e 5838 70be
00000110: 2dc2 61be f874 1bbe 9c1f c43e f440 4b3e
00000120: df1b ed3e 8667 a6be 26d2 e5be e399 37be
00000130: 5106 5ebe e907 fe3d 7068 943e 229e c83e
00000140: 5757 16be 538f 68be 5b99 333e bd5d 0abe
00000150: 5bf5 4d3e 1a0c a6bd 5a86 413e 7caa 84be
00000160: eb56 2cbe 602d cd3d

block_1.0.bias f4 [10]
-0.06807717 0.09086952 0.28805205 -0.088690616 -0.31747785 -0.19688924 0.081192866 -0.0790317
-0.052687433 -0.32459685
00000000: 0b6c 8bbd cd19 ba3d 8f7b 933e 6da3 b5bd
00000010: 758c a2be 559d 49be 7248 a63d 5fdb a1bd
00000020: c7ce 57bd 8f31 a6be

block_1.2.weight f4 [10, 10, 3, 3]
0.098379 0.0048160907 -0.08752828 -0.122948274 -0.24149962 -0.282396 -0.10482631 -0.25129822
-0.26053348 -0.09512766 0.015603867 -0.09655404 -0.16201279 -0.27132463 -0.27908042 -0.066794485
-0.14462814 -0.23456353 -0.03212638 -0.0027191483 0.021911303 0.12505719 0.30025047 0.16988096
-0.07380274 0.043712094 0.078023106 -0.15870823 0.024981027 -0.18313159 -0.032715637 -0.036931053
-0.15191132 0.112441346 -0.0051327986 -0.0031011861 -0.12469095 -0.115998834 0.021028508 -0.045829676
0.030655773 -0.10118462 0.07424929 -0.08136644 -0.024624547 0.022482105 0.054890197 0.08419439
0.09628813 -0.08353003 0.028370572 -0.045223236 -0.012755341 -0.07759975 0.17693454 -0.07675096
-0.047018934 0.1241936 0.0555158 -0.07810332 0.06898532 -0.04094702 -0.08739504 -0.08693792
0.04745698 -0.014679784 -0.046687286 0.09034849 0.016857618 -0.04098124 -0.055200186 -0.018389111
0.08265711 -0.010840807 -0.043609437 0.009170064 -0.054660685 0.054947596 0.1437312 -0.09598783
0.012654052 0.05444879 0.019107295 -0.037538417 0.055015493 0.055393953 0.039420296 -0.018522663
-0.027910408 0.0112705035 0.046374235 -0.040850267 0.04534984 0.20454745 0.020610377 -0.14838041
0.12432683 0.0987354 -0.049978863 0.08905044 -0.036214158 -0.15704036 0.18715328 0.08181494
-0.22194219 0.014796781 0.027272416 -0.24049771 -0.03452254 0.03699552 0.043852884 0.043688294
-0.09294467 -0.07660664 -0.01877468 0.11799539 0.02885015 -0.052408777 -0.0020125431 0.00059121
-0.094363846 0.022033626 0.02505229 -0.027097022 -0.10144606 0.2277875 0.10709781 0.04018035
-0.12885764 -0.060919907 -0.05052021 0.023958487 0.06804778 0.14210358 -0.0007459896 0.026774373
-0.0003617359 -0.07962 -0.08998676 -0.09809479 0.043233268 -0.051879086 -0.020998493 -0.060516268
-0.031481273 -0.054939765 -0.028655136 0.046599552 -0.009721348 0.07109604 -0.024499279 -0.048741937
-0.019702163 -0.05340467 -0.028474463 -0.11179521 0.06803914 -0.050967492 0.056581527 0.04339988
0.09096613 -0.051677983 0.08354116 -0.0509385 0.027723785 0.099149905 0.012754262 0.017758386
-0.022640765 -0.06872597 0.07674688 -0.10465352 0.06541346 0.078867815 0.09969426 -0.024863759
-0.08660786 0.023679184 0.058232173 -0.10491546 -0.024041774 -0.063385636 -0.008978499 -0.053520918
-0.044148713 -0.03322271 -0.11002592 0.08109844 0.084920146 -0.016736794 -0.012350125 -0.04233605
-0.09910914 -0.10373088 0.0386155 -0.06897412 -0.0758537 -0.012987857 -0.037498217 -0.03742893
1.6999962e-05 -0.021407757 -0.03476647 -0.051534515 -0.08494221 0.08843216 -0.042160325 0.026983354
-0.036387272 0.008706503 0.09009477 0.04443234 -0.09399908 0.030395826 0.0870435 0.018361954
0.07066894 0.103921674 -0.016108438 0.021653384 -0.07321497 -0.02175778 0.07552368 0.052620288
-0.06696266 -0.08452611 -0.072033554 -0.10399855 -0.08133741 -0.026281295 0.071327254 0.017640224
-0.08002646 -0.084561825 0.050013706 -0.080838695 -0.01577801 0.05013702 -0.05023142 -0.01211615
-0.009560071 -0.024870504 -0.053863507 -0.09397024 -0.085208304 -0.056501076 0.099895 -0.051345155
-0.0718287 0.023374863 0.026126793 0.05621438 0.080032125 0.058712415 -0.1045238 0.006396289
00000000: ee7a c93d 4cd0 9d3b 0742 b3bd 4ecc fbbd
00000010: ad4b 77be 3596 90be 2daf d6bd 29aa 80be
00000020: a564 85be 4ad2 c2bd 5da7 7f3c 20be c5bd
00000030: aee6 25be 10eb 8abe a1e3 8ebe 8ccb 88bd
00000040: 6619 14be 6c31 70be f396 03bd bd33 32bb
00000050: 557f b33c fe0e 003e 6eba 993e 46f5 2d3e
00000060: e425 97bd 740b 333d 94ca 9f3d 6984 22be
00000070: 03a5 cc3c d986 3bbe d500 06bd 0445 17bd
00000080: a48e 1bbe a647 e63d 0931 a8bb 453d 4bbb
00000090: f85d ffbd cc90 edbd fa43 ac3c e6b7 3bbd
000000a0: d121 fb3c e239 cfbd 0310 983d 73a3 a6bd
000000b0: 6bb9 c9bc 642c b83c 8bd4 603d 1c6e ac3d
000000c0: b632 c53d cb11 abbd 6769 e83c 003c 39bd
000000d0: c7fb 50bc 9eec 9ebd 542e 353e 9b2f 9dbd
000000e0: ed96 40bd 3759 fe3d 8964 633d a2f4 9fbd
000000f0: 2d48 8d3d 10b8 27bd 2cfc b2bd 820c b2bd
00000100: 4062 423d 7a83 70bc 2b3b 3fbd a108 b93d
00000110: fd18 8a3c f2db 27bd 9719 62bd c3a4 96bc
00000120: 2248 a93d a49d 31bc cf9f 32bd 093e 163c
00000130: e2e3 5fbd bb10 613d 462e 133e 4495 c4bd
00000140: f152 4f3c b205 5f3d e786 9c3c e2c1 19bd
00000150: ed57 613d c5e4 623d 2d77 213d d7bc 97bc
00000160: 5ea4 e4bc eba7 383c e9f2 3d3d 9c52 27bd
00000170: c1c0 393d e374 513e 18d7 a83c 09f1 17be
00000180: 119f fe3d c935 ca3d a3b6 4cbd 1460 b63d
00000190: 4c55 14bd 30cf 20be 1ca5 3f3e 978e a73d
000001a0: d044 63be 336e 723c 676a df3c 0845 76be
000001b0: 8267 0dbd 9d88 173d 159f 333d 7ff2 323d
000001c0: c659 bebd f1e3 9cbd 5ccd 99bc 91a7 f13d
000001d0: 2657 ec3c 96aa 56bd dfe4 03bb 6efb 1a3a
000001e0: d541 c1bd dd7f b43c 763a cd3c 93fa ddbc
000001f0: f4c2 cfbd 2041 693e 1956 db3d 2794 243d
00000200: 42f3 03be 2787 79bd 48ee 4ebd 9744 c43c
00000210: a25c 8b3d 9a83 113e 848e 43ba ee55 db3c
00000220: 5fa7 bdb9 d00f a3bd fa4a b8bd ece5 c8bd
00000230: 5e15 313d 2a7f 54bd 0805 acbc e8df 77bd
00000240: 82f2 00bd 8508 61bd 2dbe eabc 2cdf 3e3d
00000250: 4a46 1fbc cd9a 913d b6b2 c8bc a0a5 47bd
00000260: 6e66 a1bc dbbe 5abd 4743 e9bc e3f4 e4bd
00000270: 1b58 8b3d 4ac3 50bd 08c2 673d 13c4 313d
00000280: 734c ba3d 4bac 53bd a117 ab3d e3a4 50bd
00000290: fe1c e33c 1b0f cb3d 41f7 503c 097a 913c
000002a0: 2079 b9bc 34c0 8cbd 782d 9d3d 9654 d6bd
000002b0: 7ef7 853d 7385 a13d 812c cc3d 15af cbbc
000002c0: 765f b1bd d9fa c13c dc84 6e3d ebdd d6bd
000002d0: 41f3 c4bc 54d0 81bd 8e1a 13bc c038 5bbd
000002e0: 48d5 34bd 8914 08bd 4555 e1bd f016 a63d
000002f0: 9dea ad3d 9a1b 89bc 2e58 4abc 9168 2dbd
00000300: bcf9 cabd db70 d4bd 492b 1e3d 4e42 8dbd
00000310: 2f59 9bbd 05cb 54bc bb97 19bd 144f 19bd
00000320: 249b 8e37 525f afbc 4967 0ebd db15 53bd
00000330: 2ef6 adbd ec1b b53d 4eb0 2cbd 320c dd3c
00000340: d20a 15bd b8a5 0e3c 9b83 b83d affe 353d
00000350: 9782 c0bd ab00 f93c dd43 b23d cf6b 963c
00000360: e1ba 903d e3d4 d43d d8f5 83bc 7062 b13c
00000370: bbf1 95bd 5f3d b2bc 29ac 9a3d 5f88 573d
00000380: b823 89bd 061c adbd 5486 93bd 31fd d4bd
00000390: 3a94 a6bd df4b d7bc 0614 923d 3b82 903c
000003a0: eae4 a3bd c02e adbd 2cdb 4c3d c28e a5bd
000003b0: e340 81bc 7a5c 4d3d 76bf 4dbd d182 46bc
000003c0: d8a1 1cbc 3abd cbbc fb9f 5cbd 7873 c0bd
000003d0: b181 aebd ac6d 67bd c095 cc3d 4c4f 52bd
000003e0: ed1a 93bd a47c bf3c db07 d63c 0d41 663d
000003f0: e2e7 a33d 6e7c 703d 9310 d6bd f697 d13b

block_1.2.bias f4 [10]
0.50248396 -0.10569422 -0.06578091 0.34969503 -0.1290736 -0.056004155 0.322868 0.13265762
0.24025007 0.012473151
00000000: caa2 003f 3676 d8bd 24b8 86bd 3a0b b33e
00000010: df2b 04be 9d64 65bd f44e a53e 66d7 073e
00000020: 1d04 763e 305c 4c3c

block_2.0.weight f4 [10, 10, 3, 3]
0.010249296 -0.16448651 -0.08113637 -0.057064384 -0.051611304 0.15512955 -0.054056067 0.10527846
0.18310405 0.048388917 -0.07708105 -0.067728214 -0.045133658 -0.031876802 0.067742094 0.063280866
0.07653184 -0.03714223 0.01565952 -0.06393166 0.052550323 -0.04572241 -0.02599245 -0.09102135
0.00042028536 0.1000281 0.05131512 -0.3098341 -0.038704894 -0.14643712 -0.07796348 0.15216349
-0.09647762 0.09489435 -0.07840917 -0.14823155 -0.017742334 -0.00016345955 0.011586405 -0.021170184
0.08272032 -0.049212724 -0.048114847 -0.032639425 0.0710343 -0.060802527 -0.026184252 -0.06958259
-0.015403378 -0.065106235 -0.07208613 0.14105356 0.09181978 0.02842281 -0.27005765 0.11325551
-0.25737393 0.16536282 0.2773287 0.118880905 0.39661896 0.16287601 0.041274037 -0.03108473
0.0018582277 -0.009860026 -0.031999543 0.10088552 -0.13080825 -0.010270388 -0.069043405 -0.06967719
-0.21390782 -0.12406482 -0.053236324 0.071052596 0.12799652 0.024045512 -0.06080765 -0.124941714
-0.029110176 0.13615818 -0.074733086 0.11734966 0.12332376 0.0805128 0.018755669 0.085244946
0.07451772 0.09169606 0.036329854 -0.2424847 -0.20843999 0.26369438 -0.2591169 -0.057539225
0.035568118 0.13768362 0.044154275 -0.032600675 -0.19607972 -0.20623098 -0.09754067 -0.06247931
-0.0938134 0.036261674 -0.09240859 -0.0039613545 0.06182112 0.038161717 -0.052843638 -0.08612392
0.005507527 -0.061443403 0.08672386 -0.10119819 0.04737367 -0.121452875 0.42228854 0.34630644
-0.38564742 0.78014386 0.4143217 -0.79255193 -0.22069024 -0.18933828 0.16054687 0.22127743
0.116655126 -0.15575112 -0.057770774 0.066041455 -0.111712776 -0.14820631 -0.019358603 -0.08244615
-0.07905944 -0.09511352 0.09290091 0.12727924 -0.0572872 0.17005108 0.15651387 0.021171426
-0.6384915 -0.012811205 0.18228698 -0.59449494 0.17491582 0.33326286 -0.21776184 -0.012560292
-0.15481392 -0.11710125 -0.056353293 0.20355546 -0.24244405 0.29686052 0.107913285 -0.31189564
0.011960386 -0.019170467 -0.34345585 0.15424626 0.39148906 -0.17904921 0.2776196 0.36272296
-0.30789307 -0.09613506 -0.07708388 0.16653925 -0.11837323 -0.26347265 0.128766 0.18455827
-0.10170387 -0.2543285 0.06685071 0.21066558 -0.026041431 0.10186886 0.070418306 -0.05623615
-0.08267759 -0.1126591 -0.06336307 -0.04734321 -0.035644818 -0.026440848 -0.055769153 -0.037621897
-0.041546237 0.101493016 -0.040316716 -0.07739586 0.042328257 -0.007981729 0.08069058 0.065951094
0.09693095 -0.07722594 0.067803085 0.08856136 -0.05205819 0.09689447 0.07904175 -0.049363118
0.0041614426 -0.071155965 -0.15678231 0.011121664 0.06415687 -0.12565327 0.02645819 -0.06891257
0.0668133 0.08069794 0.035742756 -0.088044494 0.047327254 0.05752889 -0.007497715 0.036966607
0.104833 -0.0585885 -0.047136284 0.02118198 -0.023534443 0.08369874 -0.021731159 -0.010943164
0.019456962 -0.0076265116 0.04485212 -0.009714825 -0.15807113 -0.03641414 -0.06888096 -0.024165276
-0.044426978 -0.13680635 -0.041112993 -0.03575219 -0.05217274 0.06993691 -0.04105139 0.06878178
0.028868955 -0.10901653 0.012034296 0.06830844 -0.11826328 -0.10544384 0.053423792 0.043412283
00000000: aaec 273c 276f 28be d32a a6bd 58bc 69bd
00000010: 6066 53bd 48da 1e3e e569 5dbd 3c9c d73d
00000020: a17f 3b3e 7533 463d abdc 9dbd 17b5 8abd
00000030: 12de 38bd 4091 02bd 5ebc 8a3d 6699 813d
00000040: babc 9c3d 7322 18bd 6548 803c 9aee 82bd
00000050: 023f 573d 6c47 3bbd 1eee d4bc 6769 babd
00000060: bf59 dc39 88db cc3d ce2f 523d 93a2 9ebe
00000070: 0689 1ebd 9df3 15be 51ab 9fbd bfd0 1b3e
00000080: 0f96 c5bd f857 c23d fd94 a0bd 03ca 17be
00000090: 5f58 91bc 5766 2bb9 e8d4 3d3c 186d adbc
000000a0: 4569 a93d 4893 49bd 1314 45bd ebb0 05bd
000000b0: 6e7a 913d 120c 79bd 5b80 d6bc 5181 8ebd
000000c0: 735e 7cbc 6b56 85bd e5a1 93bd 5870 103e
000000d0: 020c bc3d f4d6 e83c ff44 8abe 81f2 e73d
000000e0: 84c6 83be df54 293e 07fe 8d3e d577 f33d
000000f0: a411 cb3e f8c8 263e f70e 293d 67a5 febc
00000100: c68f f33a f28b 21bc f411 03bd 119d ce3d
00000110: 99f2 05be 2145 28bc a166 8dbd eab2 8ebd
00000120: a70a 5bbe b215 febd 550e 5abd 0684 913d
00000130: 8511 033e 18fb c43c 7111 79bd 71e1 ffbd
00000140: 7778 eebc 0d6d 0b3e a90d 99bd 0555 f03d
00000150: 2b91 fc3d e5e3 a43d 7da5 993c e794 ae3d
00000160: bf9c 983d 25cb bb3d 9dce 143d e94d 78be
00000170: 4b71 55be f302 873e f8aa 84be 40ae 6bbd
00000180: e0af 113d effc 0c3e 1ddb 343d 4988 05bd
00000190: 1fc9 48be 372e 53be 67c3 c7bd 4eea 7fbd
000001a0: 3d21 c0bd 1f87 143d b740 bdbd 40ce 81bb
000001b0: 2538 7d3d 764f 1c3d 9272 58bd bd61 b0bd
000001c0: 7c78 b43b 14ac 7bbd 479c b13d ff40 cfbd
000001d0: e50a 423d 49bc f8bd 3436 d83e 144f b13e
000001e0: 9473 c5be 82b7 473f f921 d43e afe4 4abf
000001f0: 9ffc 61be e5e1 41be 6666 243e 8d96 623e
00000200: e2e8 ee3d 397d 1fbe 0ca1 6cbd be40 873d
00000210: abc9 e4bd 65c3 17be ef95 9ebc 87d9 a8bd
00000220: eae9 a1bd e1ca c2bd d542 be3d 7d55 023e
00000230: fca5 6abd df21 2e3e 2c45 203e b36f ad3c
00000240: 2e74 23bf 17e6 51bc 70a9 3a3e d230 18bf
00000250: 221d 333e 6ea1 aa3e f6fc 5ebe afc9 4dbc
00000260: 8a87 1ebe c8d2 efbd b6d2 66bd d870 503e
00000270: 4143 78be 1afe 973e a401 dd3d c9b0 9fbe
00000280: 7ff5 433c 620b 9dbc 72d9 afbe bbf2 1d3e
00000290: 4171 c83e ad58 37be 2824 8e3e d3b6 b93e
000002a0: 29a4 9dbe 75e2 c4bd 27de 9dbd 4489 2a3e
000002b0: aa6d f2bd e3e5 86be 3cdb 033e d8fc 3c3e
000002c0: 1e4a d0bd 5837 82be 06e9 883d b8b8 573e
000002d0: d754 d5bc 9fa0 d03d 7937 903d e157 66bd
000002e0: de52 a9bd d0b9 e6bd 7fc4 81bd f4ea 41bd
000002f0: 4d00 12bd 7a9a d8bc 326e 64bd 6b19 1abd
00000300: 632c 2abd 92db cf3d 2423 25bd b881 9ebd
00000310: 6560 2d3d ccc5 02bc 1a41 a53d 5e11 873d
00000320: bc83 c63d a228 9ebd 58dc 8a3d a95f b53d
00000330: f83a 55bd 9c70 c63d a4e0 a13d fb30 4abd
00000340: b65c 883b 38ba 91bd 8b8b 20be a437 363c
00000350: ad64 833d 40ab 00be d9be d83c 0922 8dbd
00000360: 69d5 883d f644 a53d ff66 123d ac50 b4bd
00000370: 39da 413d 6aa3 6b3d 64af f5bb 4c6a 173d
00000380: afb2 d63d 7ffa 6fbd fa11 41bd d585 ad3c
00000390: 4ecb c0bc 3f6a ab3d 8b05 b2bc f54a 33bc
000003a0: 3564 9f3c d1e7 f9bb dbb6 373d ee2a 1fbc
000003b0: 66dd 21be fe26 15bd 7611 8dbd 42f6 c5bc
000003c0: 10f9 35bd f716 0cbe 1966 28bd e370 12bd
000003d0: 15b3 55bd 153b 8f3d 8125 28bd 76dd 8c3d
000003e0: 967e ec3c 0f44 dfbd 7f2b 453c 4ce5 8b3d
000003f0: 0534 f2bd f1f2 d7bd e8d2 5a3d 14d1 313d

block_2.0.bias f4 [10]
-0.14349525 0.119216666 -0.040147427 -0.16398291 -0.048398416 0.0070868856 0.34485352 0.46825418
0.828367 -0.08650905
00000000: 6bf0 12be de27 f43d a171 24bd 23eb 27be
00000010: 6b3d 46bd 1b39 e83b a490 b03e 03bf ef3e
00000020: dc0f 543f a82b b1bd

block_2.2.weight f4 [10, 10, 3, 3]
-0.21804011 -0.13701725 -0.12063741 -0.056664933 0.080976896 0.023195403 0.037532907 -0.120731495
0.02747521 -0.07151441 -0.29412803 -0.057087936 -0.13338612 0.07477613 -0.36140323 0.3142094
-0.018159984 -0.72729576 0.046082113 -0.02883658 0.09407356 -0.07200419 0.055628084 0.032906983
0.035353404 0.06103987 -0.09612633 -0.107028045 0.08298339 -0.051278602 -0.064899005 0.0192216
0.005860068 -0.00647521 0.03134658 0.12693483 -0.07239043 0.0073107868 0.08101687 -0.013189652
-0.014852999 0.011016071 -0.046027116 -0.052012086 -0.15805069 -0.071732596 -0.065246485 0.121116266
0.009609256 0.06035761 0.08017151 0.03214983 -0.0035754398 -0.032361053 -0.50328255 -0.09580964
-0.6857391 -0.2787795 0.1251932 0.21232574 -0.38093638 0.028405346 0.67357415 0.40844876
0.119962454 -0.2154546 0.053917415 -0.11522413 -0.023397412 -0.16192287 0.010141293 0.08406322
0.3885252 -0.09670453 0.110229954 0.026739027 -0.44094068 0.257928 -0.3141416 -0.46189713
-0.14835212 -0.04379938 0.061020803 -0.04444145 -0.018451173 -0.1251302 -0.1147737 0.04552319
0.028311169 -0.04705885 0.06708695 0.07969078 0.08189269 -0.031551752 0.08343997 -0.018056791
0.2511532 0.0015981641 0.031740308 0.14865951 0.102999546 -0.23544924 0.11262928 -0.24918331
0.3099681 -0.10642768 -0.6714964 0.17796576 -0.046654683 -0.043153215 0.040068 0.017198777
-0.12525603 -0.075818755 -0.07500281 -0.14175986 -0.043874513 -0.05634447 0.11411848 0.058132377
0.0785738 -0.07484746 -0.08574826 0.15161137 0.022409428 0.062284086 -0.0045035384 0.03366094
0.013171362 0.006805273 -0.06656335 0.01021367 0.068417124 -0.07704496 -0.12781128 -0.036455337
0.096131474 0.064885534 -0.059582017 -0.052032627 0.027381474 0.08965163 0.113635555 0.020934252
-0.06331921 -0.009528194 0.35937873 -0.2726512 -0.20385903 0.051534317 0.026279509 -0.01069981
-0.13916543 -0.02642139 -0.11475888 0.06178041 -0.1773282 -0.47471398 0.009540743 0.09506618
-0.49648437 0.45386988 -0.18828896 -0.03867448 -0.28269127 0.2256288 0.20967485 -0.5116047
0.08263344 0.30315268 -0.13909292 0.010134212 0.10255119 0.092067085 -0.06414699 -0.045695867
0.010760544 -0.0013136972 -0.013302207 -0.10586586 0.18514112 -0.021759903 -0.10471664 0.0050540725
0.05060972 -0.15149353 0.025764767 0.18335308 -0.08328609 -0.4902689 -0.10899533 -0.5427658
-0.5936911 0.62723774 -0.22775859 -0.23446335 0.15341932 0.23503314 -0.07398117 -0.07276138
-0.022507766 -0.038232107 0.0015145313 0.06329596 -0.033159778 -0.09823217 0.058447454 -0.058531407
0.058577254 0.018714296 0.09567665 0.032449473 -0.11134797 0.09889215 -0.03696226 -0.022004543
0.067185014 -0.122385696 -0.07849237 -0.04215971 0.049810745 -0.09432472 0.08083019 0.034450173
0.04909361 0.12034437 0.055865362 -0.1276819 0.14763907 0.087420605 -0.017396824 0.008974279
0.11278203 -0.041315623 -0.42737257 -0.21006595 0.27204365 -0.3559628 0.06944528 -0.06765006
-0.24545957 0.15664852 -0.12430274 -0.22602192 0.3836226 -0.061591018 -0.3275276 0.41755894
0.11661867 0.16515325 -0.2629225 0.04435324 0.10948455 -0.3941358 0.14493008 -0.007990613
00000000: e845 5fbe 404e 0cbe bf10 f7bd 7d19 68bd
00000010: 37d7 a53d 4904 be3c 1bbc 193d 1342 f7bd
00000020: b113 e13c 2676 92bd f397 96be 0ad5 69bd
00000030: 5f96 08be 3a24 993d d809 b9be 0ee0 a03e
00000040: 3fc4 94bc 0e30 3abf 99c0 3c3d b13a ecbc
00000050: a3a9 c03d ef76 93bd 46da 633d 79c9 063d
00000060: bbce 103d f104 7a3d e2dd c4bd 8531 dbbd
00000070: 32f3 a93d 8309 52bd c5e9 84bd 9e76 9d3c
00000080: d005 c03b 002e d4bb 4565 003d 34fb 013e
00000090: 6f41 94bd 538f ef3b 2cec a53d 6919 58bc
000000a0: fe59 73bc c07c 343c ee86 3cbd a00a 55bd
000000b0: 0ad8 21be 8ae8 92bd f39f 85bd ce0b f83d
000000c0: 2470 1d3c 8b39 773d f630 a43d 8aaf 033d
000000d0: ed51 6abb 068d 04bd 20d7 00bf d837 c4bd
000000e0: 998c 2fbf 30bc 8ebe a532 003e eb6b 593e
000000f0: 180a c3be 54b2 e83c 5b6f 2c3f 3220 d13e
00000100: e0ae f53d 21a0 5cbe 82d8 5c3d a1fa ebbd
00000110: eeab bfbc 1ccf 25be aa27 263c 5629 ac3d
00000120: c6ec c63e 060d c6bd 3ec0 e13d ce0b db3c
00000130: fac2 e1be 240f 843e 2bd7 a0be c87d ecbe
00000140: 9ee9 17be fb66 33bd f3f0 793d 3d08 36bd
00000150: ea26 97bc 2222 00be 790e ebbd 8676 3a3d
00000160: d3ec e73c c8c0 40bd e264 893d eb34 a33d
00000170: 5bb7 a73d 693c 01bd 93e2 aa3d d6eb 93bc
00000180: 2797 803e 7d79 d13a 2002 023d 333a 183e
00000190: 6df1 d23d 9b19 71be 2eaa e63d e929 7fbe
000001a0: 24b4 9e3e c1f6 d9bd 30e7 2bbf a83c 363e
000001b0: fb18 3fbd 6dc1 30bd 581e 243d 73e4 8c3c
000001c0: 1e43 00be dd46 9bbd 139b 99bd 7f29 11be
000001d0: c3b5 33bd 75c9 66bd f3b6 e93d 371c 6e3d
000001e0: 4deb a03d a049 99bd c99c afbd 0340 1b3e
000001f0: fa93 b73c 991d 7f3d 6b92 93bb 0ee0 093d
00000200: b2cc 573c c4fe de3b 5e52 88bd 3d57 273c
00000210: 471e 8c3d bfc9 9dbd f6e0 02be 3152 15bd
00000220: 94e0 c43d b5e2 843d 460c 74bd 2a20 55bd
00000230: 1d4f e03c 469b b73d c2b9 e83d 4f7e ab3c
00000240: 81ad 81bd 241c 1cbc 7d00 b83e f098 8bbe
00000250: 6cc0 50be a615 533d 2048 d73c 424e 2fbc
00000260: 6281 0ebe ac71 d8bc b406 ebbd 750d 7d3d
00000270: 8695 35be b60d f3be c750 1c3c 0fb2 c23d
00000280: 3333 febe a261 e83e d2ce 40be 2269 1ebd
00000290: e9bc 90be 3c0b 673e 01b5 563e 87f8 02bf
000002a0: b93b a93d d436 9b3e 606e 0ebe f709 263c
000002b0: 5c06 d23d ab8d bc3d 7f5f 83bd 972b 3bbd
000002c0: fe4c 303c 5d30 acba 80f1 59bc 33d0 d8bd
000002d0: a295 3d3e d341 b2bc ae75 d6bd a29c a53b
000002e0: 234c 4f3d 1f21 1bbe a210 d33c e9c0 3b3e
000002f0: e691 aabd 8604 fbbe f238 dfbd b3f2 0abf
00000300: 24fc 17bf a792 203f 8c39 69be 2917 70be
00000310: f419 1d3e 87ac 703e 7183 97bd eb03 95bd
00000320: 3562 b8bc 4599 1cbd 3d83 c63a 50a1 813d
00000330: 8cd2 07bd f32d c9bd 9966 6f3d a1be 6fbd
00000340: b4ee 6f3d b94e 993c 1ff2 c33d bde9 043d
00000350: 680a e4bd f887 ca3d bd65 17bd df42 b4bc
00000360: 4c98 893d 5aa5 fabd 9cc0 a0bd a9af 2cbd
00000370: 5a06 4c3d 522d c1bd 4c8a a53d a01b 0d3d
00000380: 6216 493d 1c77 f63d 14d3 643d 0bbf 02be
00000390: b22e 173e 9309 b33d c983 8ebc db08 133c
000003a0: 44fa e63d 923a 29bd 94d0 dabe 871b 57be
000003b0: 4e49 8b3e c240 b6be 5439 8e3d 1d8c 8abd
000003c0: c159 7bbe 7868 203e 6f92 febd 4a72 67be
000003d0: 2e6a c43e dd46 7cbd b3b1 a7be 49ca d53e
000003e0: c5d5 ee3d ef1d 293e c79d 86be beab 353d
000003f0: 7039 e03d 2bcc c9be 8d68 143e 0feb 02bc

block_2.2.bias f4 [10]
0.08446243 -0.27853045 0.20349696 0.057341192 -0.083086774 0.28261596 0.026235536 0.006415838
-0.0057148244 -0.08748592
00000000: a3fa ac3d 8b9b 8ebe 8261 503e 99de 6a3d
00000010: 6629 aabd 0ab3 903e e8eb d63c f33b d23b
00000020: 6c43 bbbb d12b b3bd

classifier.1.weight f4 [10, 490]
0.006348631 -0.2291378 0.16563465 -0.088085316 0.11407404 0.0037286165 0.05420675 0.08918334
0.22022262 0.031555973 -0.15986237 0.1116325 -0.01645803 -0.06049274 0.06700946 0.02486497
0.1462968 -0.047247823 -0.0061827246 -0.01264042 -0.04166193 -0.0074864966 0.10094726 0.05546348
0.08056784 0.13873138 0.12367049 -0.012525235 -0.065943085 -0.027227528 -0.044490613 0.0028007485
0.14751314 -0.123504944 0.044434167 0.030264542 -0.07133659 0.025737366 -0.16188812 -0.16769567
0.12062872 -0.04682656 0.10216443 -0.18306214 -0.17769754 0.018014854 -0.027772488 0.34559414
-0.072898895 0.08773383 0.06623824 -0.114864424 -0.13344117 0.104903236 -0.08567996 0.0121151535
0.109867185 -0.08630091 -0.23546237 0.06968857 -0.016035456 0.00046086282 0.04473654 0.02632755
0.16922665 -0.071089625 0.004747116 0.029345207 0.2822527 0.16017932 0.024330152 0.082702495
-0.032691352 -0.08996514 0.00036106718 0.2533033 -0.04460055 0.083715364 -0.019716103 -0.10551409
-0.1047902 0.025980668 0.12605196 -0.09759461 -0.11885653 -0.017832285 -0.10017939 -0.044524383
-0.016541362 0.051007625 -0.022270776 -0.083528906 -0.0863597 0.20628652 -0.08347011 -0.15406477
0.0707361 0.016881932 0.03314684 0.07495743 0.12336587 -0.03783985 -0.017319225 0.12340224
-0.026058454 0.18534566 0.07982497 0.012981804 0.06413139 -0.06560826 0.026586657 0.009685859
0.09115796 0.114981875 0.22926864 -0.031644527 -0.007598067 -0.077181645 -0.13748173 0.0058917697
-0.073616065 0.16540506 -0.16634305 -0.10285189 0.09266887 -0.13008639 -0.20813441 -0.028173814
0.03443431 -0.05937077 -0.13922954 0.13256548 0.08705604 -0.1132709 0.050297838 0.061433565
-0.046762444 -0.10824137 -0.029162807 0.055583432 -0.040472873 0.051284872 0.051144883 -0.12734963
-0.09681177 -0.16408503 -0.12415331 0.20846704 -0.12619129 -0.08051136 -0.008246958 0.1207682
0.04021445 -0.023445217 -0.07160913 -0.059392698 -0.11398963 -0.051805213 0.047694925 -0.14430964
-0.12150393 -0.13068087 -0.057567354 -0.11184272 0.024951972 -0.024288775 -0.09237416 0.0119847
0.018468564 0.09667038 -0.013856306 0.02664368 0.01095354 0.034690145 0.16517404 -0.026378097
0.16034146 -0.03173863 -0.056805465 -0.046117727 -0.06583337 0.23949532 -0.04546102 0.23076698
-0.04534086 -0.08373281 -0.01046208 -0.053780258 0.16996558 0.039667614 0.030048816 -0.069765
-0.008138104 -0.069295965 -0.038878314 0.10614734 0.006691405 0.002162609 -0.020974487 -0.023411965
0.037075754 0.0032298316 -0.0024285987 -0.007427516 0.006428872 0.124189444 0.10789372 0.042763606
-0.036580313 -0.03828996 0.013631209 0.10542925 0.051229835 0.12111883 0.016315715 0.28965923
0.07217586 0.109566234 0.13758782 -0.17977169 -0.019619275 0.035111804 0.16754669 -0.0173011
0.07087638 -0.009341131 -0.08788611 0.0029720247 -0.052338284 0.00042259385 -0.039319776 0.00085670466
-0.06629606 0.017418662 0.017014211 0.04147783 -0.010711305 -0.11231278 0.0077625536 0.0028615526
-0.009650278 -0.006000636 -0.05644269 -0.038756404 -0.028027521 0.0039515286 0.12672329 0.054114707
0.08992682 -0.02589391 0.28526968 0.068377584 0.06248787 -0.0059824856 0.1183718 -0.0003697611
00000000: 2d08 d03b 19a3 6abe 219c 293e 1366 b4bd
00000010: a69f e93d ce5b 743b e607 5e3d c1a5 b63d
00000020: 0a82 613e d640 013d f6b2 23be 959f e43d
00000030: fed2 86bc 3cc7 77bd 413c 893d 9fb1 cb3c
00000040: d4ce 153e ef86 41bd 7498 cabb c419 4fbc
00000050: b3a5 2abd 4951 f5bb 70bd ce3d ad2d 633d
00000060: c000 a53d 990f 0e3e f446 fd3d a536 4dbc
00000070: 2b0d 87bd 440c dfbc ca3b 36bd c38c 373b
00000080: af0d 173e 29f0 fcbd 9a00 363d 58ed f73c
00000090: eb18 92bd 2bd7 d23c 00c6 25be 6ab8 2bbe
000000a0: 310c f73d 35cd 3fbd 963b d13d a474 3bbe
000000b0: 58f6 35be e393 933c 2183 e3bc b7f1 b03e
000000c0: 044c 95bd cbad b33d eaa7 873d 0a3e ebbd
000000d0: cda4 08be 82d7 d63d fa78 afbd a37e 463c
000000e0: 0c02 e13d 88be b0bd 0c1d 71be e2b8 8e3d
000000f0: ca5c 83bc f69f f139 aa3d 373d e0ac d73c
00000100: c049 2d3e 7097 91bd b28d 9b3b 5c65 f03c
00000110: 6d83 903e 0c06 243e 0750 c73c ed5f a93d
00000120: 5ee7 05bd a53f b8bd 9e4d bd39 f8b0 813e
00000130: 11af 36bd f672 ab3d aa83 a1bc c517 d8bd
00000140: 3f9c d6bd 69d5 d43c c413 013e afdf c7bd
00000150: 0d6b f3bd 0315 92bc da2a cdbd 335f 36bd
00000160: c081 87bc 5fed 503d 3471 b6bc 3411 abbd
00000170: 5bdd b0bd c63c 533e 61f2 aabd 28c3 1dbe
00000180: 17de 903d fa4b 8a3c fbc4 073d 4883 993d
00000190: 3fa7 fc3d f5fd 1abd 0ce1 8dbc 50ba fc3d
000001a0: 8a78 d5bc 41cb 3d3e 467b a33d a2b1 543c
000001b0: 5157 833d a05d 86bd 43cc d93c 70b1 1e3c
000001c0: 06b1 ba3d 9e7b eb3d 66c5 6a3e b19d 01bd
000001d0: 35f9 f8bb 6911 9ebd 03c8 0cbe bf0f c13b
000001e0: 05c4 96bd f25f 293e d555 2abe 03a4 d2bd
000001f0: 2dc9 bd3d 5e35 05be 3021 55be c5cc e6bc
00000200: fe0a 0d3d c42e 73bd 3092 0ebe 3fbf 073e
00000210: 704a b23d 93fa e7bd 1b05 4e3d c3a1 7b3d
00000220: fa89 3fbd a7ad ddbd d7e6 eebc 74ab 633d
00000230: e2c6 25bd 1610 523d 4c7d 513d f167 02be
00000240: 4045 c6bd e805 28be 1744 febd 6278 553e
00000250: 4a38 01be 24e3 a4bd 401e 07bc 5155 f73d
00000260: e8b7 243d 2f10 c0bc cfa7 92bd c245 73bd
00000270: 6573 e9bd b431 54bd c15b 433d e8c5 13be
00000280: 0dd7 f8bd 35d1 05be bfcb 6bbd cc0d e5bd
00000290: 1468 cc3c 41f9 c6bc aa2e bdbd 7a5b 443c
000002a0: 634b 973c 1ffb c53d 8f05 63bc d943 da3c
000002b0: 7a76 333c 4117 0e3d 6223 293e e116 d8bc
000002c0: 8d30 243e 5e00 02bd d9ac 68bd f1e5 3cbd
000002d0: a5d3 86bd 433e 753e 5635 3abd 2e4e 6c3e
000002e0: 56b7 39bd 1c7c abbd 2569 2bbc b048 5cbd
000002f0: 750b 2e3e 827a 223d ef28 f63c f4e0 8ebd
00000300: af55 05bc 0beb 8dbd de3e 1fbd c763 d93d
00000310: 9343 db3b 8fba 0d3b b0d2 abbc 73ca bfbc
00000320: bfdc 173d 95ab 533b 2029 1fbb 8562 f3bb
00000330: 49a9 d23b 0957 fe3d 62f7 dc3d e428 2f3d
00000340: 3dd5 15bd efd5 1cbd 6f55 5f3c 4aeb d73d
00000350: 60d6 513d 260d f83d 89a8 853c 374e 943e
00000360: f0d0 933d 4364 e03d d2e3 0c3e 1216 38be
00000370: 9ab8 a0bc 65d1 0f3d 5c91 2b3e 09bb 8dbc
00000380: a327 913d 8b0b 19bc a2fd b3bd 4dc6 423b
00000390: ab60 56bd 968f dd39 c60d 21bd 7a94 603a
000003a0: 3bc6 87bd 95b1 8e3c 6361 8b3c a8e4 293d
000003b0: 787e 2fbc 3e04 e6bd 055d fe3b e388 3b3b
000003c0: 331c 1ebc fca0 c4bb 7330 67bd 09bf 1ebd
000003d0: f999 e5bc d37b 813b c0c3 013e 62a7 5d3d
000003e0: 8d2b b83d 771f d4bc de0e 923e 8c09 8c3d
000003f0: 48f3 7f3d ba08 c4bb ea6c f23d 7fdc c1b9

classifier.1.bias f4 [10]
0.058357764 -0.19895545 0.47121915 -0.029346393 -0.4021442 -0.1650668 0.16529955 -0.0027682194
0.1922629 -0.12568527
00000000: 8d08 6f3d faba 4bbe a343 f13e d967 f0bc
00000010: d8e5 cdbe 4507 29be 4944 293e 046b 35bb
00000020: 91e0 443e a4b3 00be
